…
Test labels shape:  (10000,)
3
FINAL TRAIN/VAL/TEST split
Training data shape:  (48000, 34, 34, 2)
Training labels shape:  (48000,)
validation data shape:  (12000, 34, 34, 2)
validation labels shape:  (12000,)
Test data shape:  (10000, 34, 34, 2)
Test labels shape:  (10000,)

 Printing a few labels from validation and training sets 
validation: [7 1 1 7 6 0 0 6 8 1]
training: [6 5 3 8 3 1 8 5 1 8]
_________________________________________________________________
Layer (type)                 Output Shape              Param #   
=================================================================
conv2d_1 (Conv2D)            (None, 34, 34, 64)        1216      
_________________________________________________________________
batch_normalization_1 (Batch (None, 34, 34, 64)        256       
_________________________________________________________________
max_pooling2d_1 (MaxPooling2 (None, 17, 17, 64)        0         
_________________________________________________________________
dropout_1 (Dropout)          (None, 17, 17, 64)        0         
_________________________________________________________________
conv2d_2 (Conv2D)            (None, 17, 17, 32)        18464     
_________________________________________________________________
batch_normalization_2 (Batch (None, 17, 17, 32)        128       
_________________________________________________________________
max_pooling2d_2 (MaxPooling2 (None, 8, 8, 32)          0         
_________________________________________________________________
dropout_2 (Dropout)          (None, 8, 8, 32)          0         
_________________________________________________________________
conv2d_3 (Conv2D)            (None, 8, 8, 16)          4624      
_________________________________________________________________
batch_normalization_3 (Batch (None, 8, 8, 16)          64        
_________________________________________________________________
max_pooling2d_3 (MaxPooling2 (None, 4, 4, 16)          0         
_________________________________________________________________
dropout_3 (Dropout)          (None, 4, 4, 16)          0         
_________________________________________________________________
flatten_1 (Flatten)          (None, 256)               0         
_________________________________________________________________
dense_1 (Dense)              (None, 10)                2570      
=================================================================
Total params: 27,322
Trainable params: 27,098
Non-trainable params: 224
_________________________________________________________________
Start learning with best params at 2019-01-15 23:26:07.405457
Train on 48000 samples, validate on 12000 samples
Epoch 1/15

   64/48000 [..............................] - ETA: 12:16 - loss: 3.8511 - mean_absolute_error: 0.1790 - categorical_accuracy: 0.1406 - acc: 0.1406
…
