…
Test labels shape:  (202,)
2
FINAL TRAIN/VAL/TEST split
Training data shape:  (878, 176, 100, 2)
Training labels shape:  (878,)
validation data shape:  (156, 176, 100, 2)
validation labels shape:  (156,)
Test data shape:  (202, 176, 100, 2)
Test labels shape:  (202,)

 Printing a few labels from validation and training sets
validation: [2 1 1 2 3 2 2 3 2 1]
training: [2 2 2 1 2 0 0 2 1 2]
_________________________________________________________________
Layer (type)                 Output Shape              Param #
=================================================================
conv2d_1 (Conv2D)            (None, 176, 100, 64)      1216
_________________________________________________________________
batch_normalization_1 (Batch (None, 176, 100, 64)      256
_________________________________________________________________
max_pooling2d_1 (MaxPooling2 (None, 88, 50, 64)        0
_________________________________________________________________
dropout_1 (Dropout)          (None, 88, 50, 64)        0
_________________________________________________________________
conv2d_2 (Conv2D)            (None, 88, 50, 32)        18464
_________________________________________________________________
batch_normalization_2 (Batch (None, 88, 50, 32)        128
_________________________________________________________________
max_pooling2d_2 (MaxPooling2 (None, 44, 25, 32)        0
_________________________________________________________________
dropout_2 (Dropout)          (None, 44, 25, 32)        0
_________________________________________________________________
flatten_1 (Flatten)          (None, 35200)             0
_________________________________________________________________
dense_1 (Dense)              (None, 4)                 140804
=================================================================
Total params: 160,868
Trainable params: 160,676
Non-trainable params: 192
_________________________________________________________________
Start learning with best params at 2019-01-14 20:17:13.907605
Train on 878 samples, validate on 156 samples
Epoch 1/15

 32/878 [>.............................] - ETA: 32s - loss: 2.7846 - categorical_accuracy: 0.3125
…
