…
Test labels shape:  (10000,)
3
FINAL TRAIN/VAL/TEST split
Training data shape:  (48000, 34, 34, 2)
Training labels shape:  (48000,)
validation data shape:  (12000, 34, 34, 2)
validation labels shape:  (12000,)
Test data shape:  (10000, 34, 34, 2)
Test labels shape:  (10000,)

 Printing a few labels from validation and training sets
validation: [7 1 1 7 6 0 0 6 8 1]
training: [6 5 3 8 3 1 8 5 1 8]
_________________________________________________________________
Layer (type)                 Output Shape              Param #
=================================================================
conv2d_1 (Conv2D)            (None, 34, 34, 64)        1216
_________________________________________________________________
batch_normalization_1 (Batch (None, 34, 34, 64)        256
_________________________________________________________________
max_pooling2d_1 (MaxPooling2 (None, 17, 17, 64)        0
_________________________________________________________________
dropout_1 (Dropout)          (None, 17, 17, 64)        0
_________________________________________________________________
conv2d_2 (Conv2D)            (None, 17, 17, 32)        18464
_________________________________________________________________
batch_normalization_2 (Batch (None, 17, 17, 32)        128
_________________________________________________________________
max_pooling2d_2 (MaxPooling2 (None, 8, 8, 32)          0
_________________________________________________________________
dropout_2 (Dropout)          (None, 8, 8, 32)          0
_________________________________________________________________
flatten_1 (Flatten)          (None, 2048)              0
_________________________________________________________________
dense_1 (Dense)              (None, 10)                20490
=================================================================
Total params: 40,554
Trainable params: 40,362
Non-trainable params: 192

optimizer='adam', learn_rate=0.001, activation=tf.nn.leaky_relu
channel_1, channel_2, num_classes =  64, 32, 10
16 epochs
64 batch size
0.5 dropouts
_________________________________________________________________
Start learning with best params at 2019-01-15 22:28:07.536746
…
